Entrainement MLP/mnist_lone_layer_weights.npz (npz, 31898 bytes, 2 tensors)

W f4 [10, 784]
0	0xbbc31aa5	-0.005954104
1	0xbcc534ee	-0.02407309
2	0x3d0ee870	0.03488964
3	0xbbeabc4a	-0.007163559
4	0x3c6869aa	0.0141853485
5	0xbd029eca	-0.031889714
6	0x3ca86c6e	0.020559516
7	0xbc35da57	-0.01109942
8	0xbcde8cfa	-0.027166832
9	0x3bab1f65	0.0052222484
10	0x3c8dbd5c	0.017302208
11	0x3cfd30c3	0.03090704
12	0xbcb2ba2c	-0.02181729
13	0xbc907b76	-0.017636996
14	0x3bdf0218	0.0068056695
15	0x3c1eaf5d	0.009685365
16	0x3c60f8a1	0.013731153
17	0x3ca095d0	0.019602686
18	0xbc04aeee	-0.008098347
19	0x3ca28b37	0.019841773
20	0x3cd7b5e1	0.026331844
21	0xbc18da17	-0.00932934
22	0x3cd026ee	0.025409188
23	0x3c8ef1c5	0.01744927
24	0x3d01081f	0.031501886
25	0xbca642be	-0.020295497
26	0xbc907973	-0.017636037
27	0xbc293005	-0.01032639
28	0x3aed7501	0.0018116535
29	0x3caf99e1	0.02143568
30	0xbca704a3	-0.020387953
31	0x3c927a20	0.0178805
32	0xbc51b784	-0.012800101
33	0x3cb0b9fe	0.021573063
34	0xbae1822b	-0.0017204931
35	0xbd00803f	-0.031372305
36	0xbca23e43	-0.01980508
37	0xbcd5d706	-0.026103508
38	0x3c8ee4cf	0.017443089
39	0xbcc46cdc	-0.02397769
40	0xbb378645	-0.0028003615
41	0x3bf5b3ba	0.0074982317
42	0xbca520aa	-0.020157177
43	0x3c25a0da	0.010109151
44	0xbd0df8ff	-0.03466129
45	0xbcd1769b	-0.02556925
46	0xbd058345	-0.03259589
47	0xbc344f7b	-0.011005278
48	0xbc5847c5	-0.013200705
49	0x3ba50a6c	0.005036643
50	0xbbd914ca	-0.0066247927
51	0x3c8985b4	0.016787387
52	0x3d061d34	0.032742694
53	0x3c51f1ae	0.012813969
54	0xbc6686fc	-0.014070269
55	0xbd08fad7	-0.033442345
56	0x3c53f09c	0.012935784
57	0xbc90f4f3	-0.017694926
58	0x3c94e1b9	0.01817404
59	0x3cc41585	0.023936043
60	0x3c61aade	0.013773648
61	0x3d092b40	0.033488512
62	0x3d0a0e70	0.033705175
63	0x3bee046b	0.0072637103
64	0xbcdc561d	-0.02689653
65	0x3cf433d9	0.02980988
66	0xbca420ac	-0.02003511
67	0xbca96607	-0.020678533
68	0x3ccaf9dc	0.024777345
69	0x3caa3bbe	0.02078044
70	0x3ac80504	0.0015260284
71	0xbc053b6e	-0.008131845
72	0xbd2576cd	-0.0403965
73	0xbc640b6f	-0.013918742
74	0x3ccac040	0.024749875
75	0x3a98e015	0.0011663461
76	0xbb0d897a	-0.0021596835
77	0xbc282990	-0.0102638155
78	0xbc651077	-0.013980976
79	0x3ca9690e	0.020679977
80	0x3b04fe14	0.0020293044
81	0x3cbe0a32	0.02319822
82	0xbbcf2393	-0.0063213794
83	0x3c7fa781	0.015603901
84	0x3c718785	0.014741783
85	0x3bba9e5c	0.0056951474
86	0x3cb7d756	0.022441547
87	0x3cb87c7a	0.022520293
88	0x3d074cad	0.033032108
89	0x3cdaa9f4	0.026692368
90	0xbc2f6b38	-0.010706715
91	0xbd07e1d2	-0.033174343
92	0x3b015b9f	0.0019738448
93	0xbc18ac15	-0.009318371
94	0xbcb0a146	-0.021561276
95	0xbc9be93a	-0.01903211
96	0xbc7931c9	-0.015209624
97	0x3bb6cf6e	0.0055789268
98	0xbc67a102	-0.014137508
99	0xbd2673de	-0.040637843
100	0xbd38aa32	-0.045084186
101	0xbd2f2b19	-0.04276571
102	0xbd4a4ea9	-0.049391422
103	0x3a53b788	0.00080763595
104	0xbb9f1d8e	-0.004855818
105	0x3c803c77	0.015653832
106	0xbc21859d	-0.009858516
107	0x3b361173	0.0027781397
108	0x3c3136f7	0.010816327
109	0xbd0b7887	-0.03405049
110	0x3b4ed60f	0.0031560694
111	0xbb1c8f93	-0.0023889288
112	0xbca40807	-0.020023359
113	0xbce30550	-0.027712494
114	0x3d017caa	0.03161303
115	0x3cee907b	0.029121628
116	0x3c83d2b3	0.01609168
117	0x3cffbf02	0.03121901
118	0xbca95998	-0.020672604
119	0xbc832fa2	-0.016013924
120	0xbaf661cb	-0.0018797455
121	0xbce0eeb3	-0.02745757
122	0xbd07432d	-0.03302305
123	0xbd5c0f0f	-0.0537253
124	0xbc0471f5	-0.00808381
125	0xbcc0d9d8	-0.023541376
126	0x3c030b0e	0.007998241
127	0x3d4b39f6	0.049615823
128	0xbbd3c76e	-0.006462983
129	0xbc6252b6	-0.013813665
130	0x3c205af9	0.009787315
131	0xbcf5459d	-0.02994042
132	0xbcbb6c3f	-0.022878764
133	0x3c4b0c75	0.012393107
134	0xbcfd945d	-0.030954534
135	0xbd141edb	-0.03616224
136	0xbcd40fcd	-0.02588644
137	0xbc3caa6f	-0.011515244
138	0xbc8d6445	-0.017259726
139	0xbc97e002	-0.018539432
140	0x3c6c5d81	0.01442659
141	0x3bc6e02e	0.006069205
142	0xbc3ba268	-0.011452295
143	0xbce37e60	-0.027770221
144	0xbc585f76	-0.013206353
145	0xbcb6457a	-0.022249926
146	0xbccdd767	-0.025127126
147	0xbd60455a	-0.05475364
148	0xbccd5be2	-0.025068227
149	0xbd81e1c4	-0.063418895
150	0xbd6ef087	-0.058334854
151	0xbd347edd	-0.0440663
152	0x3ca275a5	0.019831488
153	0x3c9dbab5	0.019254068
154	0x3d4c4706	0.04987242
155	0x3dd76662	0.10517575
156	0x3dc66022	0.09686305
157	0x3db78eab	0.08962759
158	0x3c80df37	0.015731437
159	0x3a46b895	0.00075806055
160	0xbc22a874	-0.009927858
161	0x3c9a9b3e	0.018872853
162	0xbc7e952c	-0.015538495
163	0xbd49018f	-0.049073752
164	0xbc7459a6	-0.014913952
165	0xbd08c543	-0.03339125
166	0xbc16334a	-0.009167502
167	0xbc22990b	-0.009924184
168	0x3cfd4493	0.030916488
169	0x3c353c00	0.011061668
170	0xbbcf9e84	-0.006336035
171	0x3ba885c2	0.0051428983
172	0xbc71399d	-0.014723209
173	0x3b73cdd7	0.0037201548
174	0xbbd0a614	-0.0063674543
175	0xbcbd9020	-0.023140013
176	0xbd657869	-0.056023035
177	0xbc38d726	-0.011281764
178	0xbced87f8	-0.028995499
179	0xbc71d06b	-0.014759163
180	0x3d2d33a4	0.042285576
181	0x3d9f8334	0.07788697
182	0x3dd19211	0.10232938
183	0x3dc2676f	0.09492385
184	0x3dbbdf17	0.091734104
185	0x3e0950d7	0.13409744
186	0x3e063c48	0.13108933
187	0x3d0b0705	0.03394224
188	0x3d0d7aab	0.034540813
189	0xbb10106b	-0.0021982442
190	0x3bbdfbd7	0.005797844
191	0xbc082a29	-0.008310833
192	0xbd0e8691	-0.0347963
193	0xbc8c4476	-0.017122488
194	0x3c47b415	0.012188931
195	0xbbcf5b8e	-0.006328053
196	0xbcf5b212	-0.029992137
197	0x3ce9d38c	0.028543256
198	0xbc96e0cb	-0.018417737
199	0xbbb9e7db	-0.0056733913
200	0xbb943ecf	-0.004524089
201	0xbc92d514	-0.01792387
202	0xbd79ea08	-0.061014205
203	0xbcac7fa0	-0.02105695
204	0xbd6d9441	-0.058002714
205	0xbd3dec5d	-0.04636799
206	0xbb0d69ce	-0.0021577957
207	0xbc2ed2d6	-0.010670384
208	0x3c2d4e71	0.010577784
209	0x3cfbe8ba	0.030750621
210	0x3d3a3b5c	0.045466766
211	0x3d8227b1	0.06355227
212	0x3dc411e4	0.09573725
213	0x3e113594	0.14180595
214	0x3dd33b68	0.10314065
215	0x3d94b250	0.07260573
216	0x3d56c7d3	0.05243666
217	0x3d1db14c	0.03849916
218	0x3d233fcd	0.039855767
219	0xbd05603e	-0.032562487
220	0xbca105e6	-0.019656133
221	0xbad4d9cc	-0.0016239225
222	0x3c675e36	0.014121583
223	0xbd07fa5e	-0.033197753
224	0xbc5cb1af	-0.013470097
225	0xbcfc3f64	-0.030791946
226	0xbcc30924	-0.02380807
227	0x3c7de5a8	0.015496649
228	0xbc967fed	-0.018371547
229	0xbbedb043	-0.007253678
230	0xbd515097	-0.051102247
231	0xbcf21788	-0.029552236
232	0xbd52b34c	-0.051440522
233	0xbb329301	-0.0027248266
234	0xbca73a41	-0.02041352
235	0x3b80d9de	0.003932222
236	0x3a8a8e0d	0.0010570899
237	0x3d315301	0.04329205
238	0x3db5b4f0	0.08872402
239	0x3dae793b	0.085192166
240	0x3d9ba116	0.07599084
241	0x3dec8a06	0.115497634
242	0x3dfb55ce	0.12272225
243	0x3d93fffd	0.0722656
244	0x3dbddcb7	0.09270614
245	0x3d30d8f0	0.043175638
246	0x3d51209c	0.05105649
247	0x3bf9bc60	0.007621333
248	0xbd188098	-0.03723201
249	0xbc911378	-0.017709479
250	0x3bfecf2c	0.0077761617
251	0x3bfc949c	0.0077081453
252	0xbc8d3ddb	-0.017241409
253	0x3d0d4fd4	0.03449996
254	0xbbe83159	-0.007085961
255	0xbce67cb2	-0.028135631

b_bin f4 [10]
0	0xbdf5570c	-0.119794935
1	0x3e2c9d09	0.16856779
2	0xbd6407be	-0.055671446
3	0xbd83c006	-0.0643311
4	0x3db9babc	0.0906882
5	0x3e76ce27	0.24102078
6	0xbc3110af	-0.0108072
7	0x3de2698d	0.110552885
8	0xbebf4153	-0.37354526
9	0xbd9153f0	-0.07096088
